Shapley_SHAP/mnist_cnn.pt (torch, 90712 bytes, 8 tensors)

conv_layers.0.weight f4 [10, 1, 5, 5]
00000000: 2d9e ae3d 0652 01be 4ed9 523d 4c0f 6bbe
00000010: 1f9c 15be ac10 373e e1be d5bd 4cc8 38be
00000020: 1115 5dbe be59 4ebd c451 943e d9f3 c6bd
00000030: 210a 3dbe 40b9 87be 1515 8cbe ca9c d23e
00000040: 9a4e 903e 711d 5f3d 8032 4fbd 4064 b03d
00000050: 8eeb 363e 67be c53e 8ca6 e73e 1b87 ac3e
00000060: 7fcb 223e 1287 d7bc 8c55 a13e 679a 0cbe
00000070: 55c0 64be 8ad5 81be b1ec 893e b500 a53e
00000080: b9f9 6d3e 07de 913d 70a5 723d a4f7 463d
00000090: 2262 f23d b77a d3bd 5e23 c53d bce4 6d3d
000000a0: 8909 423e fd2b c1bc 1be7 e03d fdda 6ebc
000000b0: e4ee 853e c2f4 833e a459 f93c f536 81bc
000000c0: 2862 423e 7c38 4d3e 2966 f13a 3a94 b43e
000000d0: 09dd e53e af9d 143f cf72 ad3e f32a 893e
000000e0: 4798 3a3e 2159 fb3e f7bf fc3e 0dd9 8c3e
000000f0: 36ae 06be d0a9 4f3b 8bcc e03e 8df5 1c3e
00000100: fc53 623d cc2c 003c 3ebb 67bc 29a5 f53c
00000110: 47cb 973e 150b 87bd 8490 11be 052d 8e3d
00000120: 9b47 38be 4ab9 f83d 61d4 d33c 2a65 e63b
00000130: fc42 4d3e 733b 1d3b 9726 1ebd b1e7 a4bd
00000140: 49be 783e 7507 51bd f42c ad3c 5522 a3bc
00000150: 4626 173d bf7d 3d3e 498d a1bd 6935 2dbe
00000160: 61eb 073e 9afa 563d 7902 f13d ecf7 9e3e
00000170: d0aa 1ebc fce4 8c3e 02bb 093c 6cbe 873d
00000180: b47d c43d 0e78 333e 25f0 9abd 9cae 5e3e
00000190: 6b0d 7d3e 4c80 193e c1ee b93d 82d8 db3e
000001a0: abf2 b33e eb9a d13e 6bee b23e 7f26 053f
000001b0: ee99 d43e 215b ce3e 6f19 253e 24b2 8b3e
000001c0: 0168 15bd 3c26 eabc 371b 333d 459a 93be
000001d0: 7fa1 9ebe dfad 9cbe 324d 4cbc 4d87 363d
000001e0: d7c8 f8be 0946 debe a9e4 c2be 05d9 a7be
000001f0: eda4 883c ff27 0ebe 3dda 2abe 33f9 24be
00000200: ed24 893d dc83 7b3e d07a 213e 073b 973d
00000210: 66c2 08be bf6f 99bb 090d 783e 921e fe3d
00000220: 01b4 4c3e d22f f93d 4542 8a3d de26 073d
00000230: 6677 fa3a 13a2 71bd 4a77 263e dc37 44be
00000240: 9ed4 c53d 547b 5cbe 2035 073d 9a59 56bd
00000250: 0a5a 2dbe 26e0 a0bc ad4b 8e3d e238 de3d
00000260: 6dd4 8d3e f15c 9b3e 54dd 2fbd 413d 95bd
00000270: 9371 943d 3764 c23e d3e5 7b3d 06f9 b8bd
00000280: 0d71 743d e260 c63e 6a47 b53e e5ef 583e
00000290: dee5 433d d21c 693e 79f3 553e c01e 263e
000002a0: d25d 153c 86bf fc3c 87e4 cf3d a5a2 3f3e
000002b0: d05f 233e 1aba 14be afc3 74be 2d18 833e
000002c0: 881e dd3d f036 113c e7b0 423e ebc4 f6bc
000002d0: b99d 9a3e 9a01 013f f199 ec3e 1b5e 9b3e
000002e0: 29f2 5f3d 0444 3b3e 1f72 1d3f b895 f73e
000002f0: 0227 6f3e 2da7 bebd c513 653d 9cf9 963e
00000300: cae4 613e 73a4 a5bd 36bb ccbd 7f1a d2bd
00000310: be5d 7c3e 38fd 043e 67a1 08be dae6 82be
00000320: 1504 b03e 3f13 6d3e 9179 8739 b553 973e
00000330: cc39 cb3e 2902 ce3d fc83 563e c5ff 633e
00000340: 286d 33bd 222f 293c e29b 8cbe 75a6 b1bd
00000350: 87a2 a3bd 063b bbbd 750a 56bd e95a 77be
00000360: 4672 58be 0df1 9abc 7663 5abe e0eb c2bd
00000370: 7354 69be 10c6 c3bd 4797 5dbe e181 03bd
00000380: ed2f 83bd 67b4 ac3d c53c 0c3e f43c 303e
00000390: 98bc b2bc d984 7b3e 4d8a 283d 7b1b 68bd
000003a0: f4a9 1abd 349d 9bbc 8284 2fbd 03a3 ddbd
000003b0: 1e9f 4fbe 5440 e23c b97d 7dbe 2560 25be
000003c0: 7b6e 373e 446d ed3d a642 5cbd 3c43 ad3d
000003d0: cdaf b1bc 69b3 363e bc04 fbbd adb7 f1bd
000003e0: 86b5 0f3e 366c d03c
0.085262634 -0.12628946 0.05147677 -0.22955054 -0.14610337 0.17877454 -0.10436798 -0.18045157
-0.21590067 -0.050378554 0.28968632 -0.09714479 -0.18460895 -0.26508522 -0.27359834 0.41135246
0.28184968 0.054471437 -0.05058527 0.08612871 0.17863294 0.38621828 0.45244253 0.33696827
0.1589794 -0.026309524 0.3151058 -0.13730775 -0.22338994 -0.2535823 0.26938394 0.32227102
0.23239793 0.071224265 0.059239805 0.048576012 0.118351236 -0.103261404 0.096258864 0.058079466
0.1894895 -0.023580546 0.1098158 -0.014578578 0.26158822 0.25772673 0.030438252 -0.015773276
0.18982756 0.20041078 0.0018417287 0.35269338 0.448952 0.58053106 0.33876655 0.2679058
0.18222152 0.49091437 0.49365208 0.27509347 -0.13152394 0.003168691 0.43906054 0.15328045
0.055255875 0.00782318 -0.014143763 0.029985981 0.29647276 -0.065939106 -0.14215285 0.069421805
-0.17996065 0.12144716 0.025858106 0.0070311027 0.20045084 0.0023991733 -0.03861102 -0.08052004
0.24291338 -0.051032502 0.0211396 -0.019913832 0.036901735 0.18505 -0.07888276 -0.16914906
0.13273384 0.052485086 0.1176805 0.31048524 -0.00968428 0.2751845 0.008406403 0.06628117
0.095942885 0.17526266 -0.07565335 0.21746296 0.2471215 0.14990348 0.09078742 0.4293862
0.35146078 0.40938506 0.34947523 0.52011865 0.4152369 0.403039 0.16122983 0.27284348
-0.03647614 -0.028582685 0.043727126 -0.28828636 -0.30982587 -0.30601403 -0.012469577 0.044562627
-0.4859073 -0.43412808 -0.3806508 -0.3278276 0.016680205 -0.13882445 -0.16684814 -0.16110687
0.06696496 0.24562019 0.15769506 0.073843054 -0.13355407 -0.0046825106 0.24223723 0.124081746
0.19990541 0.12167324 0.06750921 0.03299605 0.001910907 -0.058992457 0.16256443 -0.19161934
0.09659694 -0.21531421 0.03300965 -0.052331544 -0.16928878 -0.019638132 0.06948028 0.10850693
0.2770113 0.30344346 -0.042935684 -0.07287074 0.07248225 0.37967083 0.061498474 -0.090318725
0.059678126 0.3874579 0.35406047 0.21185263 0.04782664 0.227649 0.20893659 0.16222668
0.009116607 0.030853044 0.1015101 0.18714388 0.15954518 -0.14524117 -0.23902772 0.25604382
0.10796839 0.008863196 0.19012795 -0.030123195 0.30198458 0.5039307 0.46211198 0.30345234
0.0546743 0.18287665 0.6150226 0.48356414 0.23354724 -0.0930923 0.055927057 0.29487312
0.22059932 -0.08088007 -0.09996645 -0.1025896 0.24645135 0.1298722 -0.1334282 -0.2556675
0.34378114 0.23151873 0.0002583978 0.2955605 0.39692533 0.10059006 0.20948786 0.22265537
-0.04380527 0.010326179 -0.2746268 -0.08674327 -0.07989984 -0.09142117 -0.052256066 -0.24155773
-0.21137342 -0.01891377 -0.21327004 -0.09517646 -0.22786121 -0.09559262 -0.21639739 -0.032106284
-0.064056255 0.084328465 0.13695057 0.17210752 -0.021818444 0.24562396 0.04114752 -0.056666832
-0.037759736 -0.018995859 -0.04285098 -0.10822108 -0.20275542 0.027618565 -0.2475499 -0.16149957
0.17913239 0.115931064 -0.0537745 0.084600896 -0.021690274 0.17841877 -0.122567624 -0.118026115
0.1403409 0.025442224

conv_layers.0.bias f4 [10]
00000000: aec1 da3d 3225 dabc c440 abba 7432 b63c
00000010: 0f5e 6cbb 3e7b f4ba b6db eebb 24eb b13c
00000020: 0b11 ad3d 69ec 1cbb
0.10681473 -0.026629064 -0.0013065566 0.022240855 -0.0036066805 -0.0018652452 -0.007289375 0.02171857
0.08450516 -0.0023944622

conv_layers.3.weight f4 [20, 10, 5, 5]
00000000: 3844 52bd 01bf 13bd aee0 a1bd 50a3 8abd
00000010: 776b c0bc 0702 19bd 9e14 cebb d4dd ac3c
00000020: 72bd b9bc d3e2 1cbd 0571 d3bc c7a7 3e3c
00000030: a186 53bd fc17 67bd 2bf6 1ebd a79d 17bd
00000040: dee9 373c 2681 d8bc 29f3 90bd 9fdc 86bc
00000050: 2cdf 543d 8248 3fbd 3607 283d fb6e 313d
00000060: 1f28 b5bc 78d0 553a 70c3 b23c 2667 3a3c
00000070: e64a 8f3c eec1 a63d 12d3 3fbd 8d48 e9bb
00000080: 55d3 13bc 18e1 77bd fc1b cfbb 5b84 08bc
00000090: e263 f5bc b745 913d 5f6e 5ebd 0f49 88bd
000000a0: c25a efbc 30af 083d e9fd 003d 77be 3e3d
000000b0: c27c 0bbd 93b8 4dbc 082a 1abc 4bfb 3cbd
000000c0: e640 cdbd 9aa2 e2bd eb26 0ebd db8b 9dbc
000000d0: 668b b8bb 657b 7e3c 12a1 47bc a901 783c
000000e0: bd8a abbd c1a3 33bd f554 653d 20da ad3d
000000f0: 0dbd a1bd 76cb 9abd 7642 b3bd f5fd 81bc
00000100: c300 283d 2c16 21bd 996c 233d af98 b53d
00000110: 6d4a f73d 200d 923d e9d5 0b3d 528f 7b3c
00000120: 8e78 433c a27f 9ebd 1e61 d8bd b9eb d83b
00000130: 51f2 dcbb b2fa d1bc e37c 373c 7a7b 69bc
00000140: 4b23 a0bd 441b b3bc 8286 3b3d 2971 513d
00000150: f60d 8c3d de4b 503d a103 68bd c6ae 423d
00000160: 0dab 813d e03c 023c 6527 5dbc f4cc 53bc
00000170: 69e4 ad3c 4df4 45bc aa19 dd3b 65b9 33bd
00000180: 1feb 8f3a cd06 fd3c 435f a3bd 4133 7d3c
00000190: 1d8f 72bc ecc3 013d 14c8 e13d 9a06 313d
000001a0: 394f ec3c 835e 8d3d 8e20 8d3d 524b d2bc
000001b0: bb9c c3bb 31a0 bb3c 0a6a fbbc e8e3 0cbd
000001c0: 03ce 57bd c1c1 8c3c 70fb b43d ba8e 3ebd
000001d0: 5ef0 7a3d cb0b 5f3d c64c 273e 5d12 e43d
000001e0: edbc 653d 0611 703d d776 293c 3e78 0fbd
000001f0: b9f7 6ebd 40df 053d a1e8 e0bc 385b 4dbb
00000200: 83b3 673d 7beb 643d d91d 80bc 9a79 94bd
00000210: 179f 0d3d c31a 4f3d 87de 33bd 82b0 36bd
00000220: b801 533d 50c2 f5bc 43a1 453c b7a2 063d
00000230: 555b e73c 88e8 0f3d f7a5 663b 9a7b a0bc
00000240: 0014 5e3c 62e6 ceb9 538f c73c 01c5 6bbd
00000250: e886 24bc 78b4 49bc 7ad7 833d 2a2a fabc
00000260: 1401 83bd 668a 463d 0068 293d 4aba 133d
00000270: 4422 04bd 8222 c0bd dd30 36bc 4ecf 35bc
00000280: 1345 4fbd 7aa7 a43c d7a7 263d 4f57 c23d
00000290: 8edc 8b3b cf2a a63c 91cd b23b db38 c63d
000002a0: 3c18 71bc fa95 c5bc 362e 013d d167 433c
000002b0: 3267 9b3c 843f 833c 3fa4 bcbd 6383 723d
000002c0: fd68 87bd 658e b8bd 5293 ccbc 1100 9a3d
000002d0: ebe9 933c e0fc 26bd eb0b 00be c302 cabc
000002e0: d53e b93d 14a6 80bd a8df 09bd c2ee eabc
000002f0: 0ce6 ba3a b88d d43c 81c8 5fbd 2d63 733d
00000300: a1e5 ce3d 6ed2 483d e3cb 2e3d ed1b ab3b
00000310: fece 493c 2bf7 38bd 8630 07bd 93c7 efbc
00000320: 918a 063d 785f 65bd f369 89bc acaa 6fbc
00000330: 1731 36bd 5498 2a3b 196a 993d 153a 2e3d
00000340: 694a 95bd cf94 d6bc 60db 963d 1589 c8bc
00000350: 0d00 a33c bb87 62bd e35d 923d aff7 97bd
00000360: 2061 0dbd 6420 933d bda5 ac3d c51d a13d
00000370: a43e 203d 7855 013b 51e7 e43c 27d7 743d
00000380: eb82 8f3d cc37 3a3d bd75 60bd 8dc2 e1bb
00000390: 987c ca3c 3e71 9d3c 2ae8 8f3c 9cd1 d8bc
000003a0: 618d 323c f3fa 7fbd 0000 0ebb 9ddb 16bd
000003b0: 4f51 d6bb 4489 883c eec3 62bd 4fe0 8c3d
000003c0: fedc 303d 77e7 06bd c9b7 50bd 34fd 103d
000003d0: 7b9d 46bd 8a65 a7bb 8949 123d 13c0 973c
000003e0: 2153 41bc e28d a2ba 8ed1 80bd e0fc 95bd
000003f0: b485 a8bd 7dff 433c 0993 ee3c 8326 cfbd
-0.05133459 -0.036070827 -0.079041824 -0.06769431 -0.023488743 -0.03735545 -0.006289079 0.02110187
-0.022673342 -0.038302254 -0.025810728 0.011636681 -0.051642064 -0.056419358 -0.038808983 -0.037015583
0.011225192 -0.02642877 -0.07077629 -0.016462622 0.051970646 -0.04670001 0.041022502 0.04331873
-0.022113858 0.00081563694 0.021821707 0.011377132 0.017491769 0.08142458 -0.04683215 -0.0071192444
-0.009022553 -0.0605174 -0.0063204747 -0.008332337 -0.029954854 0.07093375 -0.054304477 -0.0665456
-0.029218081 0.033370197 0.031492148 0.04656836 -0.034054525 -0.012556213 -0.009409435 -0.04613809
-0.10022144 -0.1106617 -0.034705084 -0.019231727 -0.005631852 0.015532349 -0.012184398 0.015137115
-0.083760716 -0.04385734 0.055989224 0.0848887 -0.07897387 -0.07558338 -0.08752911 -0.015868166
0.04101635 -0.039327785 0.03989849 0.08867013 0.120747425 0.0713141 0.034139547 0.015353994
0.011930598 -0.07739188 -0.10565399 0.006619897 -0.0067427536 -0.025632236 0.011199209 -0.0142506305
-0.078192316 -0.021863587 0.045782574 0.05113331 0.068386 0.050853603 -0.056644086 0.04752996
0.063314535 0.007949084 -0.013498162 -0.012927283 0.021227079 -0.012082172 0.006747444 -0.043877978
0.0010980106 0.030887032 -0.07977154 0.015454114 -0.014804629 0.031680986 0.1102449 0.043219186
0.02884637 0.06902792 0.06890975 -0.025670681 -0.0059696115 0.022903534 -0.030690212 -0.034397036
-0.052686702 0.017182233 0.088370204 -0.046522833 0.06126439 0.054454606 0.1633788 0.11136315
0.056088377 0.058609985 0.010343275 -0.03502678 -0.058341715 0.03268361 -0.027454676 -0.0031334888
0.05656768 0.055888634 -0.015639232 -0.07249756 0.034575548 0.05056263 -0.04391339 -0.044601925
0.05151531 -0.029999882 0.012062374 0.03287002 0.028241793 0.03513387 0.0035194138 -0.019590188
0.013554573 -0.0003946303 0.024360335 -0.057560924 -0.01004193 -0.0123110935 0.06437583 -0.030537684
-0.0639669 0.04847183 0.041358948 0.03606633 -0.03225924 -0.09381582 -0.011120048 -0.011096789
-0.050602984 0.02009939 0.04068741 0.09489309 0.0042682355 0.020284085 0.0054566343 0.09678813
-0.014715251 -0.024119366 0.03153821 0.011926607 0.018970106 0.016021498 -0.09211015 0.05920733
-0.06611822 -0.090115346 -0.024972592 0.07519544 0.018055877 -0.040768504 -0.12504546 -0.02465952
0.090451874 -0.06281677 -0.03366056 -0.028678302 0.0014259233 0.025946483 -0.054634575 0.059420753
0.10102392 0.049028806 0.04267491 0.005221835 0.012317417 -0.045157593 -0.03300526 -0.02926997
0.03284699 -0.05599925 -0.016774153 -0.014628094 -0.04448041 0.0026030736 0.0749094 0.04253586
-0.07289583 -0.026194004 0.07366061 -0.024479428 0.019897485 -0.055305224 0.07146814 -0.07420289
-0.034516454 0.071839124 0.084300496 0.07867006 0.03912224 0.0019734781 0.027942332 0.059775498
0.070073925 0.04546337 -0.054799784 -0.0068896473 0.024717614 0.019219037 0.01756676 -0.026467137
0.010897965 -0.062495183 -0.002166748 -0.036830533 -0.0065404545 0.016667016 -0.055362634 0.06878721
0.043179505 -0.032935586 -0.05095652 0.035397723 -0.04849003 -0.00510854 0.03571466 0.018524205
-0.011799605 -0.0012401904 -0.062899694 -0.07323623 -0.08228627 0.011962769 0.029122846 -0.101147674

conv_layers.3.bias f4 [20]
00000000: 90ab 203d a1d4 b03c b5c1 41bd 1b14 67bc
00000010: 76de 863d 2f41 77bc 872b 083d e90d 653d
00000020: 2b62 fdbd 5ec1 c53d ed8d a93d 655d 26be
00000030: fbdc 80bd 1bb9 92bc 8dc9 70bd bca8 01bc
00000040: 2f1e 2ebd 7660 51bc 38cf 1f3d 6744 db3d
0.039226115 0.021585764 -0.047303874 -0.014103915 0.065854 -0.015091225 0.033244636 0.05592147
-0.1237224 0.096560225 0.08279023 -0.16246565 -0.06292149 -0.01791053 -0.058785964 -0.007913765
-0.042509254 -0.012779346 0.03901598 0.10706406

fc_layers.0.weight f4 [50, 320]
00000000: 5439 543d bac9 cd3c 69b2 8f3c d72f adbd
00000010: 7eac e13c 2611 183a a57d 8a3d aef5 c1bb
00000020: 87b3 a73c b50b aa3d 16c6 3c3d 66f2 c53c
00000030: e9b7 35bc c9b4 423c a6db 3cbc 29cd 6dbd
00000040: 21f9 61bd 8909 dbbd cbda 31bd 3d43 d7bc
00000050: 35ff 90bc 43f5 05bd 0e4c 9ebc f2cd 34bd
00000060: 1d23 b2bc 776a f73a 6405 9a3d 81db 203d
00000070: 9b73 8ebc bf5d 023d 4036 cf39 58a4 f5bc
00000080: bf3b 843d 0bb6 cf3c 7d81 6d3d 5f8f 523d
00000090: 8340 9ebb dfc7 133d 08f9 033d 0ab2 99bd
000000a0: f3bf f3b9 8c4a 8bbd 3733 d1bc 3fbd 89bd
000000b0: ca74 c83c 747d c73b 6737 11bd 5a78 1ebd
000000c0: 3b10 143b 7492 853b 6af0 0dbd 324f 8ebd
000000d0: d205 54bd 70ce 65bc 9d8d cabc c7c7 ee3c
000000e0: 3feb 03bd 70ae 97bc 7324 723d f163 e63b
000000f0: 0981 8dbd df83 2f3c 68c7 acbc d13a 2cbd
00000100: 7554 c53c eddf 693b 7d41 45bb 8a2c d03c
00000110: 46c6 af3d 2c42 f83d c9c3 163d f449 d4bd
00000120: 480b 14bd 58a2 23bd fe6b 703c b338 d5bc
00000130: 646a 5fbd aec7 213d 549e 54bc bbd6 fdbb
00000140: d29c 843d 27d3 44bd 9a7c 27bd c05f d1bd
00000150: 2032 3b3d ae51 d2bc 897e e33c 0a5c 95bc
00000160: b078 493b f644 bbbc 2b0e 10bd 67fa 60bc
00000170: 1352 27bd 1bd9 7a3c b3b7 00bd 4ceb c7bc
00000180: 5d7f a53d 9ebc 223e 67f8 9b3d 27c9 64bd
00000190: 78f9 a33b 877d 6c3d 81a4 093c 1bdf b7bd
000001a0: 5dc2 3fbd 7b13 c83c e6ed 663c 43d7 68bd
000001b0: 4c15 e7bb a635 0f3d ec9b 4abd 2599 1dbd
000001c0: cb15 d13b 0c05 813c 5c8b bb3c d07f 12bc
000001d0: 9607 6b3d b028 573d a8cd c33b 66e9 b3bc
000001e0: ec9d 13bd 2e54 f33c 8946 163c 93ce e5bc
000001f0: f21e cc3c b405 a9bc 7816 fd3c b5a6 7dbb
00000200: 44f0 72bd 2ec3 0abd 023b b83d f493 923d
00000210: 03f2 0ebd 47f1 04bd 8646 70bb ad70 043d
00000220: 14e3 3cbd d57e 883c 2d8e ef3c 1d15 9cbd
00000230: af0a 9bbc c066 10bd 90d1 0a3c e4f3 adbc
00000240: 91bc 3f3c 8f56 403d dff5 9b3c 0609 3abd
00000250: 1df9 853c 63c5 59bb 52fd 04bd ea4c 58bd
00000260: c1ae 92bc a73f b13c c72e 083d cadf babc
00000270: 66c0 53bc a8e9 1cbd 9844 93bc c12d 2fbd
00000280: 8903 c73c 00bd 25bd b9bf b3bc ed79 63ba
00000290: 0f0d 3fbd 2fdb 25bd cf98 043d 7b23 55bd
000002a0: ad49 493d 76ae e53c 440d 763d d347 2d3d
000002b0: 613a 8e3d 1afd a33c fe6f a53b 29fd dfbc
000002c0: e1d7 c6bc c7d0 06bc f741 333d 932a d3bc
000002d0: 6923 4dbd 5d07 d4bd 8c47 353d 84a0 d03c
000002e0: 97a7 f6bc 74af 23bd a492 f63c 4309 6b3d
000002f0: ef15 2abd 9d30 993c c55b 473c 2356 e03b
00000300: 8775 a8bc 2208 91bb fbfc 8f3c 4785 ac3c
00000310: 0ffe a4bc 1d7f d6bd 9279 63bd 1030 003d
00000320: de1a 02bd ca78 b63c a2cf 6bbd 94e6 b6bc
00000330: 0d39 3bbd 686a b7bd c18f afbd be9f 9e3c
00000340: 432d 883d dd38 90bb 326a 2f3c 57a6 cfbc
00000350: d41b 25bd d080 5dbc 3198 4ebc 4623 9dbc
00000360: 4bc6 c7bb 16a7 543b d8f7 0dbd 57b1 9a3d
00000370: 288c 5cba 4e00 9d3c 4a9a 2c3d cede 803d
00000380: 8a46 4fbd e45d 663d 45ed b93d 5464 563d
00000390: 708b 55bd 293b e5bc b542 c53b 027d a539
000003a0: 55ee c4bb 88fd 41bd 85cc 843d b700 c1bc
000003b0: 0782 fc3c 31f6 713c 9725 9cbc e4de 463d
000003c0: ba31 7dbd db8c bc3d c3ea 4abb 682b 003c
000003d0: 5c23 6ebd 2d54 5f3d ee3a 943b b6b1 47bd
000003e0: a6f2 18bc 7122 16bc 428d 9bba e8b8 06bd
000003f0: 5b04 b5bb 24d7 fbbc 1de7 97bc 5184 8bbd
0.051812485 0.025120605 0.017541127 -0.0845639 0.027548071 0.0005800895 0.06762246 -0.00591918
0.020471347 0.08303014 0.046087347 0.024163436 -0.011091211 0.011883923 -0.011526978 -0.058056984
-0.05516923 -0.10695178 -0.043421548 -0.026277179 -0.017699817 -0.032704603 -0.019323375 -0.044141717
-0.021745259 0.0018876333 0.075205594 0.039271835 -0.01738911 0.031827684 0.00039522536 -0.029985592
0.06456708 0.02535536 0.057984818 0.05140626 -0.0048294677 0.036079284 0.032219917 -0.075046614
-0.00046491585 -0.06801328 -0.025537116 -0.06725549 0.024469752 0.006087953 -0.035453226 -0.038688995
0.0022592682 0.0040762965 -0.034653105 -0.06948699 -0.051763363 -0.014026269 -0.02472573 0.029147996
-0.03220677 -0.018515795 0.059116792 0.007030957 -0.06909377 0.010712593 -0.021091178 -0.04204828
0.024088124 0.0035686449 -0.0030098849 0.025411863 0.085827395 0.12121996 0.03680781 -0.10365668
-0.03614357 -0.039949745 0.014674185 -0.026028013 -0.05454482 0.03949707 -0.0129772015 -0.007746545
0.064752236 -0.048052933 -0.040890314 -0.10223341 0.0457021 -0.025673714 0.027770298 -0.018232364
0.0030742101 -0.022860032 -0.03516976 -0.013731576 -0.040849756 0.015310551 -0.03142519 -0.02440419
0.08080933 0.15892264 0.07615738 -0.055855896 0.005004104 0.0577369 0.008401037 -0.08978101
-0.04681622 0.024423352 0.014094805 -0.056845915 -0.0070520993 0.034963273 -0.049465105 -0.038476128
0.0063807718 0.015749477 0.0228936 -0.008941606 0.05738028 0.052529037 0.005975444 -0.021961879
-0.036039278 0.029703226 0.00917209 -0.028052604 0.0249171 -0.020632602 0.030894503 -0.0038704101
-0.059311166 -0.033877544 0.0899563 0.07157126 -0.03489877 -0.032456663 -0.003666313 0.03233402
-0.046114996 0.01666204 0.0292426 -0.076212145 -0.018925993 -0.03525424 0.008472815 -0.02123446
0.011702673 0.04695755 0.019038139 -0.04541876 0.016354138 -0.0033229224 -0.032468148 -0.052807726
-0.017905595 0.021636797 0.033247735 -0.022811789 -0.012924289 -0.03830877 -0.017977044 -0.042768244
0.024293678 -0.040463448 -0.021942006 -0.0008677531 -0.046643313 -0.040492233 0.032372292 -0.05203579
0.04914253 0.028037291 0.060071245 0.042304825 0.06944729 0.02001815 0.005048751 -0.027342396
-0.024272861 -0.008228487 0.04376408 -0.025777137 -0.050082598 -0.10352967 0.044257686 0.025467165
-0.03010921 -0.039962247 0.03009922 0.05738188 -0.041524824 0.018699938 0.012167876 0.006846206
-0.020563854 -0.0044260183 0.017576685 0.021059645 -0.020140676 -0.10473464 -0.05553586 0.031295836
-0.031763904 0.022274394 -0.05757106 -0.022326745 -0.045708705 -0.08955842 -0.08572341 0.01936328
0.06649258 -0.00440131 0.010706471 -0.025347872 -0.040309742 -0.013519481 -0.012609527 -0.019181859
-0.0060966364 0.0032448224 -0.03466019 0.07553356 -0.0008413219 0.019165184 0.04213933 0.062924966
-0.05060438 0.056241885 0.09078459 0.052341774 -0.05213493 -0.027982311 0.006019915 0.0003156439
-0.0060098567 -0.047360927 0.064843215 -0.023559911 0.03082372 0.014768169 -0.019060893 0.04855241
-0.061815 0.092065535 -0.0030962683 0.007822849 -0.05813919 0.054523636 0.0045236265 -0.048753463
-0.009335196 -0.009163485 -0.001186766 -0.032891184 -0.005524201 -0.030742235 -0.01854282 -0.06812347

fc_layers.0.bias f4 [50]
00000000: 7b6a 22bc 27b4 ba3c 6d80 2fbb a01c 593c
00000010: f5a6 9fbc 5cbe 68bb 7830 b0bc f290 0e3d
00000020: 0274 96bc 55e1 10bd 42f8 df3c 15a5 b0bc
00000030: e393 e93c ad9f 05bd 7793 18bd 4dcd 873b
00000040: 9ae0 463d 3086 0cbb 1d88 7abd af66 1e3b
00000050: 8afb e73b 3e82 343d 4434 8a3d 155a 813d
00000060: a7fe de3c dd98 65bc 1c82 843d a2cf a2bc
00000070: ce2b 453c a19e 52bc c1c1 783c e9d8 863d
00000080: 2b07 ecbc 6f6d 44bc 06bb f83b bb14 58bd
00000090: 2d8c 243d c101 7cbd 34ce 683d 6b32 1bbd
000000a0: 593d 003d d44a 0c3d 98f1 0ebd f903 aebb
000000b0: 4081 8c3c c713 d9bc ee2f 223d f272 093c
000000c0: dfe6 b53c 35a6 233d
-0.009913082 0.022790981 -0.0026779429 0.013251454 -0.019488791 -0.0035513854 -0.021507487 0.0348062
-0.018365864 -0.035371143 0.027340058 -0.021563092 0.0285129 -0.03262298 -0.03725001 0.004144347
0.04855404 -0.0021442287 -0.061164964 0.002417009 0.0070795463 0.04406952 0.0674825 0.0631601
0.027221037 -0.014013496 0.06470129 -0.019874398 0.01203437 -0.012855203 0.015182913 0.06584341
-0.028812012 -0.011988982 0.0075906543 -0.052754145 0.040172745 -0.06152511 0.056837276 -0.03788988
0.031308506 0.03425105 -0.03489837 -0.005310532 0.017151475 -0.026498688 0.03959649 0.0083892215
0.022204814 0.03995343

fc_layers.3.weight f4 [10, 50]
00000000: 097d d33c 7ce6 41be 2253 87be 7974 1abe
00000010: eab3 183e 9d30 613e 1985 66be 1ffd 02be
00000020: d27f 36be e87a 0abe 0508 193e 1979 8dbe
00000030: d2dc 80bd 7d5f 763e 37bc 9f3e ec0b 303e
00000040: d786 7e3e e479 883e d7f3 8abe f4ff a4bd
00000050: 64ef 243e aa5b 94bb 9318 343e df36 d03d
00000060: 35b4 2bbe bb8b 1d3e 910d 633e 1961 82be
00000070: b0bc 9cbd fe75 0ebe 09c9 0e3e 2a1b aa3d
00000080: c30e 613e f396 dcbd 810b d2bd c577 9fbc
00000090: 628a 5fbe 909a 3abe b030 0cbe b9c1 583e
000000a0: 116a 473c e42e c93c 2763 10be fd52 743c
000000b0: a3f6 0d3e cab9 1cbd aef6 a5bd d0f2 2cbe
000000c0: 58ed 0dbe 355c 96bd 4215 0a3e 6586 79be
000000d0: 5879 00bd 1d52 95be e9f0 82be ce97 53be
000000e0: 20e2 51be 9c9d 77be e8bb c93b 6cbb 4b3e
000000f0: 9382 36be db6a 64be 1926 b3bd 1c35 1b3e
00000100: 8fb6 9ebd 77be 773c d5aa 523e af58 43be
00000110: e50a 553e 1517 163b 970a babd aea1 80bd
00000120: bf65 75be 8662 5f3e 957f 7f3e 1382 56be
00000130: 1bfc 403e e7b8 613e 644d 803e d8d7 4abe
00000140: fe7c 3dbe 114b a6bd 0244 2cbe a4c8 8d3e
00000150: c267 13be c1a1 04be 5a3b 1b3e f08d 0d3d
00000160: 353f 9ebb 0bce 6ebe 9456 353d 8af2 00be
00000170: 79cc eebd 5684 18be b6e2 0c3e f0be ac3e
00000180: 0126 4abe 1f0a 4f3e 56e5 cc3d 48b7 563e
00000190: 4e3d e33d 78fa a83d 7138 a6bd 9482 c83c
000001a0: 9322 213c 9635 043e c4ce 28be be5f 173e
000001b0: 4c44 493e 834a e33d 0a68 9c3d 5f69 59be
000001c0: 9252 88bd 3d77 373e e33c 62bd 24d8 0ebe
000001d0: 02ff b7bd a541 683e 4d43 4f3e ee95 0f3e
000001e0: 6956 a53d c208 753e e2b9 70be a7b6 42be
000001f0: 8448 9b3c d505 72be 6994 d7bd 54b7 583e
00000200: cc0e 05be 0d3b 29be ba4a c8bd 6532 c83d
00000210: 9cd5 403e f8c4 6f3e 0409 5dbd d70d 783e
00000220: 66b9 1b3e 6849 6c3e c23d 4b3d c256 443e
00000230: d6cd e23d 7658 d6bd 53e5 02be 0e1c 85bd
00000240: 8adb 143d 4bc1 6bbd bd58 373e 48db 42be
00000250: c04c 6dbe b5e9 043e fd4d 073e 44fe 9a3d
00000260: 9c8d 6dbd 69de ecbd b835 0e3e bf87 2b3e
00000270: 2aa8 1e3d 82f5 d3bd 9ef6 5f3d 05cb 6abe
00000280: 6415 62be 9aa9 103e 41a3 c1bd 45ed 1dbe
00000290: a9ab 9dbc 2dc4 5c3d 0ef0 9abd 251f 99bc
000002a0: cd17 503e c2b5 ee3d 6cb4 2f3e c7db e4bd
000002b0: 2f13 8ebe cdd4 8dbe 834d 75be 97cd 57be
000002c0: 4ed7 6dbe 75c0 403e 2f60 39be d7bc 073e
000002d0: bf17 413e e415 003e b738 a7bd 0d6c 753e
000002e0: 631d 10be 38ae cfbd 6be6 023e 8bdf 723e
000002f0: 5fd7 1dbd f527 03bd 8e56 27be 0005 0e3d
00000300: a6ff 4d3e 6b2d 06be 5cfa 4e3e 0123 70bb
00000310: 8141 743e f7b1 973d 606f e53d 1f1a e8bd
00000320: f1be 5ebe eb81 05be 2a49 873e ec6a 513e
00000330: 9441 90be 4ff5 c43d b5a0 123e bfbf 533e
00000340: 6168 0d3c 458a ee3d defc 243e 9e44 be3d
00000350: e9e0 753d 48a9 b6bd 46e6 3bbe 0f17 853d
00000360: 72ac 08be 03ee 78bd 9e48 5dbe 2f60 093e
00000370: 9dea 64be 3273 ddbd 9ef7 683d 0aae 143e
00000380: 906e 583e 0a55 d83c 5e94 9dbd fa16 05be
00000390: 63a6 833e 47bf eabd 9131 11be f4df abbe
000003a0: cd5f 84bd d56c 613e 0828 303e f2c0 183d
000003b0: c13e 98be f69e 02be 30cb 843e 42c9 56be
000003c0: 9d42 503e a984 74bd f89e 38be ec42 773e
000003d0: a112 43be 8a52 a7bd 4c48 81bd 483d 4c3e
000003e0: b782 133e 488e 2bbe fd41 64be 5428 333e
000003f0: 6295 3ebe c7a3 4a3e 1c19 313e 42ba 4bbe
0.025816457 -0.18935579 -0.26430613 -0.15083493 0.14912382 0.21991201 -0.2251171 -0.1279187
-0.17822197 -0.13523448 0.14944465 -0.27631453 -0.06292118 0.24059863 0.31198284 0.17192048
0.24856125 0.26655495 -0.2713916 -0.08056632 0.16106945 -0.004527529 0.175875 0.10166716
-0.16767962 0.15385334 0.22173144 -0.25464705 -0.07653177 -0.13912198 0.13943876 0.083059624
0.21978287 -0.10770979 -0.102561004 -0.01946629 -0.21830133 -0.18223023 -0.13690448 0.2116765
0.012171284 0.024558492 -0.14100324 0.014912364 0.13863616 -0.03826312 -0.08103691 -0.168895
-0.1386007 -0.07341806 0.13484672 -0.24367674 -0.031365722 -0.2916421 -0.25574425 -0.20663378
-0.20496416 -0.24181217 0.0061564334 0.19895715 -0.17823248 -0.22306387 -0.08747501 0.15156978
-0.07749664 0.015121094 0.2057298 -0.19076799 0.20804937 0.0022901942 -0.09084051 -0.06280838
-0.23964594 0.21814927 0.24951012 -0.20948057 0.1884617 0.22043191 0.25059044 -0.198089
-0.18504712 -0.081197865 -0.16822818 0.2769214 -0.14395049 -0.12952329 0.1515936 0.03455919
-0.004829312 -0.23320787 0.04427202 -0.12592521 -0.11660094 -0.14894232 0.13758358 0.33739424
-0.1974106 0.20218705 0.1000468 0.20968354 0.11095677 0.08250898 -0.08116234 0.024476327
0.009834903 0.12911066 -0.16485125 0.14782616 0.1965496 0.11098196 0.076370314 -0.21231602
-0.06656374 0.1791658 -0.055233847 -0.13949639 -0.08984186 0.22681291 0.20240517 0.14022037
0.08073122 0.23929122 -0.23508409 -0.19014989 0.018955477 -0.23635037 -0.10526354 0.21163684
-0.12993926 -0.16526432 -0.09779878 0.09775237 0.18831486 0.23414981 -0.053963676 0.2422403
0.15207443 0.23074877 0.049619444 0.1917372 0.11074416 -0.10466091 -0.12782793 -0.06499492
0.03634218 -0.057557385 0.17904945 -0.19028962 -0.23173809 0.12979777 0.13213344 0.075680286
-0.057996377 -0.11565859 0.1388768 0.16751002 0.038734592 -0.10349561 0.05467855 -0.22929008
-0.22078472 0.14127198 -0.09454966 -0.15422542 -0.019246893 0.053898025 -0.07565318 -0.018691609
0.2032158 0.11655761 0.17158669 -0.11174732 -0.2774901 -0.27701417 -0.2395535 -0.2107452
-0.23226663 0.18823417 -0.18103097 0.1325563 0.18856715 0.1250835 -0.081651144 0.23967
-0.1407371 -0.101406515 0.1278321 0.23718087 -0.038535472 -0.032020528 -0.16341612 0.034672737
0.20117053 -0.13103263 0.20212692 -0.0036641958 0.23853113 0.07406991 0.11202884 -0.11333107
-0.21752526 -0.13037841 0.26423007 0.20450944 -0.28175032 0.096171014 0.14319117 0.20678614
0.008630843 0.116474666 0.16112086 0.092904314 0.060028944 -0.089190066 -0.18349561 0.06498539
-0.13347033 -0.06077386 -0.21609733 0.13415597 -0.22355123 -0.108129874 0.05687677 0.14519516
0.21135926 0.026407737 -0.076943144 -0.12997046 0.2571288 -0.114622645 -0.14179064 -0.335693
-0.06463585 0.22014172 0.1720277 0.037293382 -0.29735377 -0.12755951 0.2593627 -0.20975211
0.20337911 -0.059696827 -0.18029392 0.24146622 -0.19050075 -0.0817004 -0.06312618 0.19945252
0.14405333 -0.16753495 -0.22290798 0.17495853 -0.18611673 0.19789039 0.17294735 -0.1989527

fc_layers.3.bias f4 [10]
00000000: 90f2 b73c 07eb 263e 3772 0bbe 49fb e2bc
00000010: 6e1e 1a3d 3431 eebd 15ad fabd 9baa ffbd
00000020: 03a2 c13d 0ff6 1d3c
0.02245453 0.16300593 -0.13617788 -0.027707713 0.037626676 -0.116304785 -0.12240044 -0.12483712
0.094547294 0.0096411845
